pretrain_model/criteo_pretrain.pt (torch, 921325 bytes, 37 tensors)

layers.0.weight f4 [256, 272]
00000000: 8bb0 e4bd f1ab dcbd f97b edbd 1608 ed3d
00000010: 9fee f0bc b944 2a3d ee32 07bd 5760 5abe
00000020: a4f0 34bd 2050 0a3e 66f9 abbd 8062 453e
00000030: ff99 a3bd 2122 803c ea69 8dbd 658d 4ebd
00000040: bf0d 94bd a336 5b3c 8981 a8bd ae1a 743d
00000050: 3d77 173c 97b8 4d3c e197 163c fbf8 0cbd
00000060: 87d9 5bbc b830 503d 3c4c b73d 3d55 49bd
00000070: 6e52 0cbd 1559 b63d 5118 d03d 133e b53d
00000080: 19d4 b7bd ef99 d83d 16fa 473a 3a45 75bd
00000090: d5b1 223e 3f10 433d e033 933d ef48 bebc
000000a0: 96a2 1ebd 5164 883d d5e2 323d 4d40 a23d
000000b0: e374 183d b760 a23c b885 b6bd 7e40 fbbc
000000c0: f93f b63d 01a9 3cbc 2220 4f3c 31bf b63d
000000d0: f8d4 343d c8b4 893c 5f29 9cbd 9bf9 cabb
000000e0: 8ae6 84bd 4bb2 1dbd dfc1 c43d 0efd 763b
000000f0: 7a14 e7bc 2a1f 033d bfba 6b3c 64a8 a9bc
00000100: 7ad9 42be 9029 2abd cc76 fa3d c2a0 e93c
00000110: 99d5 f83d fa84 00bd 5a32 883c 5801 a63c
00000120: d03c 88bd b2db c5bc 230d ebbd 31d2 d63d
00000130: 5b5e 3b3c b494 1a3e ee75 573c f24c 20bd
00000140: c0b9 aa3d ee18 39bd e2ad 9a3c 7329 483d
00000150: 93aa 2a3d 9a92 e13c fce0 ae3c 0b01 40bd
00000160: 165d 143e f61b e43c 1099 813d 6924 e8bc
00000170: 967b 363c 09cf fe3b 4e68 6bbd bc42 ee3d
00000180: dbb4 373d 9f53 713c 0d2f 143d 529b a7bb
00000190: 67ef 8d3d bee3 a03c 8434 5abd 5852 be3d
000001a0: 5cc5 2dbd 0543 63bc 28fa 693b 4b71 603d
000001b0: a4ee 343d 68e0 2c3d 7049 483d d78b 5c3b
000001c0: 9d99 91bd e09e 13bc 3506 c9bc 0f69 4bbd
000001d0: 8379 5bbb 31e1 953d 8971 96bc 1c68 113c
000001e0: 8973 7abc bab0 d73c 4f80 abbc 4c47 4cbd
000001f0: 08b1 233d 8e61 a3bc a9e0 a43d db34 a0bb
00000200: c5d2 2abd 1ce2 063d 3c43 b539 f706 433d
00000210: d4be 22bc 9dbe 2e3d 5b71 f7bd f748 013e
00000220: 52db 1a3d ed0c a93d 2321 9abd 83a2 723d
00000230: afb5 b23d b00f 463d a090 0c3d 1976 5c3c
00000240: 4bef a03d 629a 3abd 32c1 6b3c e8da 80bd
00000250: ad33 07bd 7cef 0c3d 7e10 5d3c 321d 11bd
00000260: c837 e0bc 84de 843d 9d4c 97bd 986e 42bd
00000270: df71 243d 0fa3 fcbc 99e0 e43c 249b 293d
00000280: 631b 34bd 98ab 91bd 0be6 c9bc 0b68 143d
00000290: 2ccc 8f3d a787 2d3d 6fcd e33c f705 b13c
000002a0: 40a9 1f3d 64f0 c43c 1a26 a1bc f2f0 103d
000002b0: 67be 6abd df29 d63c 0004 bb3a 3395 5a3b
000002c0: 89d0 913d 6511 443d fdaa 8f3a a9ae bd3c
000002d0: 2a42 1b3d 44db 8cbc f754 cdbc 65e0 7fba
000002e0: 0223 a83d 5c00 41bd 221e 91bd 368b 473c
000002f0: eff0 bc3d 9d5a d53b 7479 0dbd 7e58 9abc
00000300: 7b33 2e3b ee3d f9bc f719 3e3d fa4e a8bc
00000310: c304 1c3d f734 0cbd 9b9a bcbb 846d e6bc
00000320: 2053 453d aa45 02bd 75a8 1abd 93d5 8c3c
00000330: 4efd 8e3d 2d43 3f3d 9b8e 20bd 275d b3bc
00000340: 72be 883c be45 e73c 7a77 083d 2f02 2abc
00000350: b105 85b9 b252 f9bb fc3b 33bc 4ebe babc
00000360: 3614 ed3c 352c 3abd e0e3 9d3a 13f6 663d
00000370: c8b2 ab3a d44b bebd 9e47 a63c 1775 d23b
00000380: d697 72bc 5ddd 55bd 0a1b 8d3c f89c 18bc
00000390: d184 29bd 091d 5b3c a274 5ebc 4f69 67bd
000003a0: c5c4 fa3b 3a6c 45bd 2255 903c 8b41 343d
000003b0: b96e 2d3d 55f3 13bc bf94 d1bc 50dc 51b9
000003c0: 4ccc bb3c baf7 9cbc 931c 1dbc f8aa 94bc
000003d0: 2811 523d ba44 043d 4b44 0fbd 7911 81bc
000003e0: aed8 4e3c 7f37 04bd 5ce4 1fbd 9538 0f3c
000003f0: ad4d 08bc dc04 033d 155b 8f3c d9c2 153d
-0.111664854 -0.10774983 -0.115959115 0.11573808 -0.029410658 0.041569445 -0.033007555 -0.21325813
-0.044174805 0.13507128 -0.08397178 0.19275856 -0.07988357 0.015641274 -0.06904967 -0.050427813
-0.07229184 0.013379726 -0.08227832 0.059595756 0.009244737 0.012556217 0.009191484 -0.034417134
-0.013418562 0.05082771 0.089500874 -0.049153555 -0.0342583 0.0890371 0.10160888 0.0884973
-0.08976001 0.105762355 0.0007628513 -0.059880473 0.1588815 0.047622915 0.07187629 -0.023228137
-0.038729273 0.06659759 0.043673355 0.07922421 0.037220847 0.019821508 -0.089122236 -0.0306704
0.088989206 -0.011514903 0.012641938 0.089231856 0.044148415 0.016809836 -0.076250784 -0.006194306
-0.06489284 -0.03850011 0.096072905 0.0037687453 -0.028208006 0.032012142 0.014387785 -0.020710178
-0.19028273 -0.041543543 0.1222969 0.028519038 0.121501155 -0.031376816 0.016625572 0.020264313
-0.06652224 -0.02415261 -0.11477115 0.104893096 0.01143607 0.15095788 0.013150675 -0.03913588
0.0833621 -0.04518979 0.018881742 0.048867654 0.04166658 0.027535725 0.021347515 -0.046875995
0.14488634 0.027845364 0.063280225 -0.028337674 0.011137864 0.0077761454 -0.05747252 0.11633822
0.04485021 0.0147294095 0.036177684 -0.005114951 0.06930428 0.019639846 -0.05327274 0.092930496
-0.042424545 -0.013870959 0.0035702083 0.054795545 0.044172898 0.042206198 0.04889816 0.0033652687
-0.071093775 -0.009010047 -0.024539093 -0.04966074 -0.0033489175 0.073183425 -0.018364685 0.008874919
-0.015286335 0.026329387 -0.020935206 -0.04987268 0.039963752 -0.019943979 0.08050663 -0.0048891134
-0.04170491 0.03293048 0.00034573104 0.047614064 -0.009933192 0.04266225 -0.12082168 0.1262549
0.037806816 0.082544185 -0.075258516 0.059237015 0.0872606 0.048354805 0.034317613 0.013455891
0.078581415 -0.045557387 0.014389323 -0.06291753 -0.033008266 0.034408078 0.013492702 -0.035428233
-0.027370349 0.06487754 -0.0738766 -0.04746875 0.04014766 -0.030839471 0.027939128 0.04140772
-0.04397143 -0.07112807 -0.024645826 0.036232036 0.070213646 0.042365696 0.02780792 0.02160929
0.03897977 0.024040408 -0.019671489 0.035386033 -0.057310488 0.026143013 0.001426816 0.003335309
0.07119853 0.04786815 0.0010960993 0.023154574 0.037904896 -0.017194398 -0.025064928 -0.00097609154
0.08209802 -0.047119483 -0.070858255 0.012179187 0.09225642 0.006511046 -0.034539655 -0.018841024
0.0026580978 -0.030425038 0.04641148 -0.020545471 0.03809048 -0.0342302 -0.005755735 -0.028128393
0.048174977 -0.031804718 -0.03775831 0.017191684 0.06981908 0.046694923 -0.0391985 -0.021895004
0.016692374 0.028231498 0.033317067 -0.010376497 -0.00025371977 -0.007608735 -0.010939594 -0.022795822
0.028940301 -0.045452315 0.0012046061 0.05638702 0.0013099546 -0.09291807 0.020297822 0.0064226496
-0.014806708 -0.05221306 0.017224807 -0.009314768 -0.04138643 0.013373622 -0.013577612 -0.056496914
0.0076528513 -0.048198916 0.01761872 0.04400782 0.04234192 -0.009030183 -0.025583623 -0.00020013866
0.022924565 -0.019161094 -0.009589332 -0.01814793 0.051285893 0.032292105 -0.03497724 -0.015755402
0.012624903 -0.032279488 -0.03903614 0.008741518 -0.008319301 0.031987056 0.017499486 0.036562774

layers.0.bias f4 [256]
00000000: fb60 8e3c ea83 b8bc 2a37 8abc 28b9 f83c
00000010: af83 9e3d 5122 ecbc f532 a7bc f5a5 ba3c
00000020: 7994 3abd f804 953c bc07 4ebd 830d 2c3d
00000030: cf4f 56bc 7300 963c c159 813b 745a 593d
00000040: 99da 933a 79ec fd3a 36ba 08bd 0017 693b
00000050: 2683 8ebc eff3 27bb bb56 973b d23c f73b
00000060: bd12 9dbd e1da 07bc b90d 08bd cadd d5bb
00000070: 946d 82bc cfde fd3c eaf2 723c d493 f93c
00000080: c9f7 323c 2b12 be3c 1090 503b c908 87bd
00000090: 1227 9e3d 035b 2e3d 065f 903d f467 4a3d
000000a0: 96ee a43d 9bf4 07bb ac6b 813c 71a6 dabb
000000b0: 5586 98bb 2daa e23c e79f 97bc dd39 0f3d
000000c0: e5d7 1abc ae59 86bc f05f 16bd ec7a 1b3c
000000d0: ca81 d7bd 422b 613d 7a6c 5cbd a7b7 5cbc
000000e0: 1488 a83c 3bf0 1e3d 54c0 293d 39d3 f9bc
000000f0: 4f6d 91bd 37d9 a6bb b690 79ba ee5c 09bd
00000100: d78e ee3c 82e7 cc3c d67d 893d fd59 b6bc
00000110: d05e ae3b 75a3 17bc c6cb 9dbc 3d33 05bd
00000120: 0862 a8bc 685d 68bb 2371 afbc 5290 293b
00000130: 2336 883d 1ddc 153d 876a 57bc b07a 9dbd
00000140: 87a3 0e3d fe96 353d 1cf9 6bbd c51b b23c
00000150: c19b 54bd 269d bb3c cc5f 1b3d 1d2e 3dbd
00000160: eada d3bd 6c76 63bd 7099 80bd 6cb1 80bb
00000170: 08c9 343d 8f9a cd3d f5d4 593d a519 28bd
00000180: acad b13c c011 0bbc cd5b a339 76b4 1fbd
00000190: 6a46 0dbd 0d68 1e3d 6634 313d 46c7 7abb
000001a0: d98a 91bc f8f8 09bd 7434 24bd bc97 9838
000001b0: 3737 0dbd 4608 81bb 5b32 56bd 6250 a0bc
000001c0: 8069 62bd 65dd f83c 4086 72bd 8822 7c36
000001d0: 4e96 013c 0093 a7bd 2d5c 38bd 3649 0b3d
000001e0: f232 14bc a4ae 2abd 1467 8b3d 0ceb 083c
000001f0: 42a0 86bd a0b9 073d 3293 773c 2bee a53c
00000200: 9a19 8abb dd14 3dbd 5bbc 993d 2f1b 18bd
00000210: 7b0f 14bd 5427 6cbd 8b12 e03a 5f24 033d
00000220: d31a a23b fca2 c23c 0c93 0e3d 402a 8bbd
00000230: 25b7 c2bc 5d44 243d 338d 73bc e319 5ebc
00000240: 1643 623c 9af2 ffbb dc35 8abd 7024 89bd
00000250: d628 f3bd 37e1 b2bc 5cf6 693d 7a68 aa3b
00000260: 1960 c5bc 50ae a0bb 4a4c c7bc 60b9 99bd
00000270: ca35 ff3c 298f c13c 2bc2 3f3c f72d e83c
00000280: 1de1 45bb f237 993d 655f fd3b dbfb 223b
00000290: 539d 70bc e69c d83c eefe 55bd e636 be3c
000002a0: bca1 5fbd 76c1 a8bd d8e5 503c 7c1b cebd
000002b0: 0337 48bd 2cce 17bd 5296 1f3d 7fdf 8cbc
000002c0: 861d 2cbd 5fed 2abd 6c4a 5dbd 0c15 4d3d
000002d0: fa9e 943c f3cd 643d aa09 92bc 37d0 013d
000002e0: f996 51bd 5a38 363d c5aa 153b e697 203c
000002f0: f94c 53bd 66a9 833d 9f1d 3cbd bd08 65bd
00000300: 080c 983c fb40 7e3d a5c6 e23c d3ab aabc
00000310: f822 3a3d bea7 3fbd b890 37bd 05fc 5fbc
00000320: d403 173d 868c 44bd 3098 9c3c 81dd d5bc
00000330: ec95 0c3c c254 13bd 1ae8 05bd 133f 2fbd
00000340: 3f6e 523c 475d 643d eec8 a9bc 12e1 61bc
00000350: 7e62 a73b 69b5 133d dacf 97bc 9b99 4e3d
00000360: 499d 09bd f54c 13bd 4df1 b5ba d991 98b6
00000370: 51ac 4c3d 859d 813c d7eb 2d3d d602 913d
00000380: c169 97bd 3bf3 adbd 0f91 583c bf93 7abc
00000390: 58bb 883c ffb3 873d d7b9 303b 58dd 82bd
000003a0: f2ff ba3d b0c9 c53c 1eb4 ff3c 9749 cc3c
000003b0: e19d 4d3d 610f 793d 0bee 90bd d619 983c
000003c0: d7c6 82bd 7420 89bc 3f9f 36bc 513b 65bd
000003d0: a7c1 a1bd 9fe6 c9bb adf1 df3b 9af1 39bd
000003e0: d986 cbbc 9004 1ebd 4444 8dbd 82a1 9d3b
000003f0: cc20 69bb 83e1 11bd 1310 02bd 1581 4a3d
0.017380228 -0.022523839 -0.016872007 0.030361727 0.077399604 -0.028824957 -0.02041004 0.022784213
-0.04555175 0.018190846 -0.050300345 0.042005073 -0.013080551 0.018310761 0.003947467 0.05306478
0.0011280357 0.0019372843 -0.03338071 0.0035566688 -0.01739652 -0.0025627573 0.0046184934 0.007545092
-0.0766959 -0.008291931 -0.033216212 -0.0065266835 -0.015921392 0.030990032 0.014828423 0.030465998
0.010923334 0.023202023 0.003182415 -0.065934725 0.07722296 0.042567264 0.07049374 0.049415544
0.08053319 -0.0020745161 0.015798412 -0.0066726734 -0.0046546855 0.027669037 -0.018508865 0.034967292
-0.009450887 -0.016400184 -0.036712587 0.009489756 -0.10522802 0.054972894 -0.05381439 -0.0134715205
0.0205727 0.03880332 0.041443184 -0.030496227 -0.07100927 -0.005091812 -0.000952016 -0.03353589
0.029120846 0.025012735 0.067134544 -0.022259707 0.005321361 -0.00925528 -0.019262206 -0.032519568
-0.020554557 -0.0035456065 -0.021416252 0.0025873375 0.06650951 0.03658687 -0.013147957 -0.076894164
0.03482392 0.04433345 -0.057610616 0.021741757 -0.05190635 0.022902083 0.037933156 -0.046186555
-0.10344489 -0.055532858 -0.06279266 -0.0039274003 0.04413703 0.10039245 0.053181607 -0.04104008
0.021689259 -0.008488119 0.0003115818 -0.03899046 -0.03449098 0.03867345 0.04326286 -0.003826575
-0.017766403 -0.0336847 -0.040089086 7.2761875e-05 -0.034476485 -0.003937754 -0.052294116 -0.01956958
-0.055276394 0.030379007 -0.059210062 3.7571026e-06 0.007909371 -0.08182335 -0.04500978 0.034005366
-0.009045349 -0.041670457 0.0680677 0.008356821 -0.065735355 0.03313601 0.015110778 0.020255169
-0.0042144777 -0.046162475 0.07506629 -0.0371353 -0.036147576 -0.057654694 0.001709537 0.032017108
0.0049470454 0.023759358 0.034808204 -0.06795168 -0.02376897 0.04010426 -0.0148652075 -0.013555977
0.01380994 -0.007810903 -0.06748554 -0.06696403 -0.11873023 -0.021835906 0.057119712 0.005200443
-0.024093674 -0.004903592 -0.02432837 -0.075060606 0.031153578 0.023627834 0.011704008 0.02834223
-0.0030193992 0.07481374 0.007732319 0.0024869356 -0.0146859465 0.026442003 -0.052245073 0.023219537
-0.0545976 -0.08240025 0.0127501115 -0.10063836 -0.04888059 -0.037061855 0.038961716 -0.017196415
-0.042020343 -0.04173028 -0.054026052 0.0500689 0.018142212 0.05586047 -0.017826874 0.03169271
-0.05116937 0.044487335 0.0022837382 0.00980184 -0.05158708 0.064287946 -0.045926686 -0.055916537
0.018560424 0.06207369 0.027682612 -0.020833885 0.045443505 -0.04679083 -0.04481575 -0.013670926
0.036868885 -0.047985576 0.019115537 -0.026106598 0.008580666 -0.035969503 -0.032692052 -0.04278476
0.0128436675 0.05575302 -0.020725694 -0.013786571 0.0051081767 0.036061678 -0.018531729 0.05043946
-0.033597264 -0.035962064 -0.0013881117 -4.546932e-06 0.04996902 0.015822181 0.042461243 0.07080619
-0.07393218 -0.08493658 0.013218178 -0.0152940145 0.016690895 0.066261284 0.0026966238 -0.06389874
0.09130849 0.024144024 0.031213816 0.024937434 0.050199393 0.060805682 -0.07076653 0.018567007
-0.06385582 -0.016739108 -0.011146366 -0.05596477 -0.078982644 -0.0061615254 0.00683423 -0.045396425
-0.024844574 -0.03857857 -0.06897786 0.004810513 -0.0035572527 -0.035615455 -0.03175361 0.04943951

layers.2.weight f4 [256]
00000000: 726e 623f 2266 663f 5567 443f 2638 783f
00000010: 335c 6c3f e3e9 233f b776 6f3f 1471 583f
00000020: 5a2e 213f cabd 733f 337a 743f 91ad 633f
00000030: 339e 6e3f 6c3a 6e3f 97f9 513f dbff 683f
00000040: 7938 563f bc15 583f 51c5 693f d803 613f
00000050: efd3 733f 27fe 743f 6e4f 6f3f be5d 7e3f
00000060: 50bb 363f 1854 5d3f 19dd 653f 157f 443f
00000070: 3d55 1a3f 9847 673f 8112 443f 96ab 463f
00000080: 0794 333f a02e 663f 736b 3c3f 94a3 663f
00000090: f348 513f bbbf 4d3f 9b1b 6d3f 8806 513f
000000a0: 320b 4a3f 9612 6e3f 45f2 643f 3a53 4e3f
000000b0: cb1a fd3e bd8e 7d3f 6cd1 053f fa6f 633f
000000c0: 5149 663f 8e4d 5d3f 32d1 5b3f 9638 813f
000000d0: ed1d 4f3f 53b2 6e3f f4b6 573f ee1f 643f
000000e0: 3e17 813f 936a 5b3f 6f51 683f b60e 6f3f
000000f0: df4f 863f 8580 6e3f ff0f 523f e6d9 4e3f
00000100: eef4 673f da82 723f 7ab8 543f 1c04 123f
00000110: b599 583f c2e6 5b3f a4e1 653f 2897 463f
00000120: 3e21 363f ef4e 4a3f 80a7 5e3f 256c 7b3f
00000130: d44a 723f f1cc 4f3f 0763 823f 0119 353f
00000140: be8c 5a3f 5e43 733f aa71 4b3f ac72 683f
00000150: 092b 473f 3171 6c3f 2db0 733f 62b9 2a3f
00000160: 1a93 6d3f ca1a 693f 3fe6 523f 9888 703f
00000170: 2e58 913f 3382 873f 7fe4 6b3f aba6 813f
00000180: 378e 583f 97d4 483f b988 7c3f 4f17 543f
00000190: f406 683f eb3e 633f 4430 6b3f d9e8 5f3f
000001a0: f79d 653f 3c7a 273f a1df 103f 6401 753f
000001b0: 6145 3d3f 8770 5f3f 7607 1d3f aa7c 673f
000001c0: 35f3 223f 3b89 5d3f d899 7f3f 07ad 5e3f
000001d0: 30aa 783f 59ac 1a3f 0e8b 6e3f b1f8 663f
000001e0: c1dd 583f d44f 6d3f d24b 683f dfe9 6c3f
000001f0: 81d3 3c3f a098 723f d929 7a3f d58c 463f
00000200: 7690 603f 9025 7e3f 69b5 843f 33de 633f
00000210: af97 163f 1150 273f d87e 513f 0a3a 643f
00000220: 85f7 663f 0f93 6a3f fcff 713f 69fb 4f3f
00000230: d4a6 6b3f e7f8 653f eb89 413f 4e64 653f
00000240: a5f4 5d3f 3dc8 683f ce7b 723f feba 053f
00000250: 0b2e 5f3f b3c6 553f acd6 7a3f 0e42 803f
00000260: 96e3 7c3f a995 003f 003a 663f fd1c 4e3f
00000270: 2824 773f 2c61 803f 55ff 643f fcbc 5d3f
00000280: 5c9e 723f 7be1 7f3f 9533 733f f0e0 483f
00000290: fe24 6f3f e6f2 603f 21e9 653f 601e 5d3f
000002a0: 81ba 0c3f 34aa 613f a622 5f3f 79c9 713f
000002b0: e3fd 783f 1533 6b3f f717 683f c32c 773f
000002c0: b6eb 8c3f 8fdc 663f 133f f93e 59af 7c3f
000002d0: f9f4 5e3f 1845 553f fff9 463f acd5 653f
000002e0: 7002 743f 75d1 4e3f 871d 293f 8cbe 733f
000002f0: d104 ba3e e98a 2e3f 0cce 163f b9da 593f
00000300: 379a 7b3f 4d20 513f 3166 633f 7614 6c3f
00000310: 5d64 5d3f abd8 623f 06f3 503f aecc 6a3f
00000320: 79df 403f cddc 653f 3604 483f 4d9b 5c3f
00000330: 1676 3c3f 54b5 eb3e f974 503f b347 5a3f
00000340: 6d21 6a3f f4bd 5a3f 096a 943e 9ae4 803f
00000350: 52d8 623f 57cc 4c3f 9b30 783f 5d87 523f
00000360: 10a9 5b3f ada1 4b3f 0ccf 5f3f 1598 f63e
00000370: b7a7 493f ce18 5a3f a9d8 7f3f e879 5f3f
00000380: 8b26 433f 18a6 3c3f ea1a 683f 9f91 753f
00000390: ec0d 803f 7dcb 7b3f 3252 753f efec 433f
000003a0: 205f 813f 2c26 803f 1c3c 6c3f cc93 7c3f
000003b0: 58cc 6b3f 02be 813f 4907 693f f3e8 5f3f
000003c0: 924b 6f3f 8918 493f 8788 593f 9bb7 1d3f
000003d0: 357b 6d3f 9569 673f 402d 793f 3423 5f3f
000003e0: b6ff 193f f999 5d3f 918b 083f 0ded 603f
000003f0: 743f 613f ccea 5e3f a678 483f a7cd 733f
0.88449776 0.8999959 0.7672017 0.96960676 0.92328185 0.6402876 0.9354052 0.84547544
0.6296135 0.9521147 0.9549896 0.88936716 0.9321014 0.93057895 0.8202147 0.91015404
0.8367992 0.84408164 0.91316706 0.8789649 0.9524526 0.95700306 0.93480575 0.9936179
0.71379566 0.8645644 0.89790493 0.7675641 0.60286313 0.9034362 0.76590735 0.7760557
0.70147747 0.89914894 0.73601454 0.9009335 0.81751937 0.8037068 0.9262025 0.8165059
0.7892333 0.9299711 0.89432174 0.80595744 0.49434504 0.99045926 0.5227268 0.8884274
0.8995562 0.86446464 0.8586608 1.0095394 0.8090504 0.9324085 0.8426354 0.8911122
1.0085218 0.85709494 0.9074926 0.9338182 1.0493125 0.93164855 0.8205566 0.80801237
0.9060811 0.94730914 0.8309399 0.5703752 0.8460954 0.85898983 0.89797425 0.77574396
0.71144474 0.79026693 0.86974335 0.9821189 0.9464543 0.8117209 1.0186471 0.7074128
0.85371006 0.9502467 0.7947031 0.90799975 0.7780004 0.92360216 0.951907 0.6668912
0.92802584 0.910565 0.8238258 0.93958426 1.1355035 1.0586609 0.9214553 1.0128988
0.84592 0.78449386 0.9864612 0.82848066 0.9063561 0.8876788 0.9187052 0.8746467
0.8969416 0.6542089 0.5659123 0.95705247 0.7393399 0.8728108 0.6133951 0.904246
0.63652354 0.8653752 0.9984412 0.8698277 0.97134686 0.6041923 0.9318093 0.9022322
0.8471337 0.92699933 0.9074069 0.9254436 0.7376023 0.9476414 0.97720104 0.7755864
0.8772043 0.99276066 1.0367862 0.89010924 0.588252 0.65356547 0.81834173 0.8915106
0.90221435 0.91630644 0.94531226 0.81242996 0.92051435 0.8983292 0.7560107 0.8960618
0.8670142 0.9093054 0.9472016 0.5223845 0.8717963 0.83506316 0.97983813 1.0020158
0.9878477 0.50228363 0.8993225 0.8051298 0.96539545 1.0029655 0.89452106 0.8661649
0.9477289 0.9995343 0.9500058 0.7846823 0.9341582 0.87870634 0.8980885 0.86374474
0.5497208 0.88150334 0.87162244 0.9444805 0.972624 0.9187482 0.9066157 0.96552676
1.1009433 0.90180296 0.48680934 0.9870506 0.8709255 0.83308554 0.77725214 0.8977916
0.9531622 0.80788356 0.6606068 0.95212626 0.363318 0.6818071 0.5890815 0.8509937
0.9828219 0.8168991 0.88827807 0.9221872 0.8648127 0.8861186 0.81620824 0.91718566
0.7534099 0.8979004 0.78131425 0.8617447 0.73617685 0.4603678 0.81428486 0.85265654
0.91457254 0.85446095 0.28987148 1.0069764 0.8861133 0.799993 0.96949166 0.822378
0.85804844 0.7954357 0.87425303 0.48162904 0.7877154 0.851941 0.9993997 0.8729539
0.76230687 0.7369094 0.9066607 0.95925325 1.0004249 0.98357373 0.95828545 0.76533407
1.0107155 1.0011649 0.9227922 0.9866302 0.9210868 1.0136111 0.9102674 0.8746483
0.93474686 0.7855306 0.8497395 0.61608285 0.92766124 0.9039548 0.9733467 0.8716309
0.6015581 0.8656307 0.5333796 0.8786171 0.87987447 0.8707702 0.78309095 0.95235676

layers.2.bias f4 [256]
00000000: 0615 72bd 998a bfbd 41fd ffbc 15a2 283c
00000010: 0f05 3abe 894c bd3d 3cc8 c33d f004 11be
00000020: 35cc babc 7088 0b3c d062 2dbd 329f d03d
00000030: e134 efbd ec41 95bd c65e bebd 8b5f bdbe
00000040: b8e7 803d 8421 1abe 71d8 0b3d 94bd dbbd
00000050: 42ca a5bd f98d bebd 51ce 05be c076 b23d
00000060: 8ad5 87bd 83d9 6d3d 1ad0 543e 3b73 3b3e
00000070: f2a3 80bd 8bd3 e9bd 1a49 3d3c f13d 43bc
00000080: e084 6fbc b5a0 fd3d b2e0 eb3c 0dc8 13bd
00000090: 296e 1dbd ee50 dfbc bff1 45be 71de d6bc
000000a0: 8fe3 873b 40be b93d d666 52be c8bd 593d
000000b0: efc4 2c3e 0972 083d 5d9d 51be 84d5 b0be
000000c0: 470d 4dbe b63e 20be fb6d a1bd a2de 58bd
000000d0: aee6 cc3c 30a4 673d 7573 5c3d d62e b13c
000000e0: 81c1 8d3d 02ce 80bd 4da1 7cbd b446 74be
000000f0: 8131 bdbd cba8 2fbe e67e 5fbd 1575 4bbc
00000100: 91bf 10bb 44f5 0bbe e197 e33d 03da d23d
00000110: cca9 d73d d3a9 0e3e 76bd 5dbe ff33 32be
00000120: a4f1 52bd 4af4 9dbe 8caa 2bbe f149 043d
00000130: 455c b63b be96 59be 1bfe 19be 7b09 103d
00000140: b171 493e 0cd2 b13c 9e34 493e a731 24bc
00000150: c1da 9d3d f74e 2fbd 25e3 32be 7374 c13d
00000160: 1409 2dbe cfe9 2fbd bfc0 d0bd 8d13 acbd
00000170: 731e 193e b6e9 4f3e bd3e 50bd 5fb0 0cbe
00000180: 57ec 96bd 452f e7bd 6562 b33d b134 1ebc
00000190: 1073 1a3d ec0f 3abd e8e4 1dbe 1de7 ab3d
000001a0: 474e e53d 5b25 57bd d478 f83d 2898 5a3d
000001b0: 4e3b b1bd 2f9f 853d 3df4 30be d55f 8cbb
000001c0: f6be 8a3b d79c 19be 0d0c 2fbe cc43 253c
000001d0: 967e c6bd 4293 1e3e b25b 0c3e a1d3 12be
000001e0: 20ec 47bc 1b7a d1bd 658c 5dbd 1b66 dbbd
000001f0: f386 323e 1017 bdbd de49 3a3d b720 eb3c
00000200: 424d 113d 5ced eabd 8002 8cbc 1e1a 63be
00000210: 93ad d0bd 8511 3e3d 2858 9b3d 5092 a93d
00000220: 4754 b53e 34c4 8dbe ee95 d0bd bdf0 de3d
00000230: 39e2 22be 81f8 f1bc 473b d4bc d19c cbbd
00000240: 4c15 343e 6031 c13d ae0a 933b 5c02 92bd
00000250: a87f 713d 3d34 193d 27ef 30bd 7e51 92bc
00000260: 0235 65bc 1da9 74be 6c4a d43c e5a4 aabd
00000270: 0398 8d3c 6ae8 91bd eedc 99bd e1bb 19be
00000280: 1a30 1bbb a26b 19be b929 173e 82e1 b1bb
00000290: 5832 113e 4696 4a3e d6e3 dc3b 13c3 823e
000002a0: e91a 863d 577c 533e a761 f73c a3d5 dabd
000002b0: 7213 cf3d c4e7 2cbe 3ce6 6abd 79a5 68bd
000002c0: e7a5 29be 05af 103d 7484 00be 7f20 c2bd
000002d0: 617c 9cbd d5d9 08bd 8533 af3e 9b97 3abe
000002e0: b79f 92bc 6904 06bd f3b7 953b 1b0a 1ebe
000002f0: 0929 1e3c 4ebe 703e bf4a 073e cc48 ae3b
00000300: 7638 253e b032 9a3d e72f 3a3e b461 9ebc
00000310: 7cc6 9c3c 9d70 ad3b adb8 133e a3cb 7d3d
00000320: 9bc1 d4bd c6f0 883d 2ea2 9fbd 95bd 49be
00000330: ca62 6d3e 2127 f3bd 535a a73d 63db 2d3c
00000340: fa55 cf3d 63e7 b7bd 39f5 2ebd 8224 ad3d
00000350: 43c9 033b ef6b 753d ae82 573d 39be 0b3e
00000360: 0e8f 283d dd76 1bbd 3bb3 103e 79ce a3bd
00000370: b48b 49bd 3025 ef3d d19e cfbd d8d8 79bd
00000380: 195a 30be 07d2 063e 29b3 29bd cf2b 103e
00000390: a293 c43c ab79 10bd 28aa 00be a4c6 7fbe
000003a0: 7d72 d7bd f587 db3d 914c 7a3e 20e1 64bd
000003b0: c4c3 0abd acbe 713d 5de3 02be 112d d73c
000003c0: 64ab 99bd 81fc dfbc 2032 9a3e b687 bebc
000003d0: e481 7fbd e438 c23d 6e02 ac3c 570f d1bd
000003e0: 03a1 51be 2ed8 d13d 5f16 35be 4a59 d1bc
000003f0: 0454 83be 60e5 b8bc dd46 9fbd 87bd ffbd
-0.05910208 -0.09352607 -0.03124869 0.01029255 -0.18165992 0.092431135 0.09559676 -0.1416204
-0.022802452 0.008516416 -0.042330563 0.10186614 -0.11680008 -0.07287964 -0.0929542 -0.36986956
0.06294197 -0.15051848 0.03414196 -0.107295185 -0.08095218 -0.09304423 -0.13066985 0.08714056
-0.06632526 0.058068763 0.2078251 0.18305676 -0.0628127 -0.11417302 0.011553073 -0.011916623
-0.014619082 0.12384168 0.028793667 -0.036079455 -0.038435135 -0.02726027 -0.193305 -0.026229115
0.004147 0.090694904 -0.20547041 0.053159505 0.16871999 0.033311877 -0.20470186 -0.345379
-0.20024596 -0.15648922 -0.07882305 -0.052946694 0.02501234 0.056553066 0.053821046 0.021628778
0.069216736 -0.06289293 -0.061677266 -0.23855096 -0.09237958 -0.17154233 -0.05456438 -0.012418051
-0.0022086839 -0.1366778 0.11112953 0.10295489 0.10530433 0.1393197 -0.21654305 -0.17402647
-0.051499978 -0.3085044 -0.16764277 0.03229708 0.0055651986 -0.2124891 -0.1503834 0.03516529
0.19672276 0.021706603 0.19648978 -0.010021604 0.077077396 -0.042799916 -0.17469461 0.09446039
-0.16897994 -0.042947587 -0.101930134 -0.084021665 0.14953022 0.20303997 -0.050841082 -0.13739155
-0.07369297 -0.11288313 0.08759002 -0.009656117 0.03770739 -0.04542534 -0.15419352 0.08393691
0.11196571 -0.05252586 0.12132421 0.053367764 -0.086538896 0.065245025 -0.1728067 -0.004283885
0.00423419 -0.15001236 -0.17094441 0.010086965 -0.09692113 0.15485862 0.13706854 -0.14338543
-0.012202293 -0.10228368 -0.05408897 -0.107128344 0.17434292 -0.092329144 0.0454806 0.028702123
0.03547407 -0.11471054 -0.017091036 -0.22177932 -0.10189357 0.046403427 0.07585174 0.0827986
0.3541586 -0.27688754 -0.10184847 0.10885761 -0.1590661 -0.029537441 -0.025907172 -0.0994202
0.17586249 0.09433246 0.004487357 -0.07129356 0.058959633 0.037403334 -0.043196823 -0.017861124
-0.013989689 -0.23892637 0.025914393 -0.083322324 0.017284399 -0.071244076 -0.07512842 -0.15013076
-0.0023679794 -0.14982465 0.1476201 -0.005428494 0.14179361 0.19783887 0.0067410273 0.25539455
0.065481015 0.206529 0.030197931 -0.10685279 0.10111131 -0.16885287 -0.057348475 -0.056798432
-0.16567193 0.03532316 -0.12550527 -0.094788544 -0.07640911 -0.033410866 0.34218994 -0.18221895
-0.017898424 -0.03271905 0.0045690476 -0.15433542 0.009653338 0.23510095 0.13212107 0.0053187367
0.1613482 0.07529199 0.18182336 -0.019333698 0.019137613 0.0052929656 0.14425917 0.06196178
-0.1038849 0.06686549 -0.07794605 -0.19701226 0.23182216 -0.118726976 0.08171525 0.010611388
0.101238206 -0.089796804 -0.04271433 0.08454229 0.0020108975 0.059917387 0.05261486 0.13646783
0.041152053 -0.037955154 0.14130871 -0.07998366 -0.049205497 0.11677015 -0.10137714 -0.060997814
-0.1722187 0.13166057 -0.041430626 0.14079212 0.023996178 -0.03527228 -0.1256491 -0.24978119
-0.10519884 0.10719291 0.2444327 -0.05587876 -0.033878103 0.05901973 -0.12782045 0.026266607
-0.07503393 -0.027342083 0.30116367 -0.023258071 -0.062379733 0.09483507 0.020997252 -0.10208004
-0.20471577 0.10246311 -0.17684315 -0.025555272 -0.25650036 -0.022570312 -0.07777188 -0.12487321

layers.2.running_mean f4 [256]
00000000: 7b2f 9f3c 4d31 343d 0400 0000 f062 783f
00000010: 147b aa3f 0400 0000 4431 243f 7fe5 ad3f
00000020: 0400 0000 65cd 463f f9a4 0c3f e9c9 c53f
00000030: 925f 3a3f 049a a93f 44e6 323f b4e7 ad3f
00000040: d0b1 9e3d dd85 f73e d0db 123c 0b5b 9c3f
00000050: 5afd 9b3e ebe9 0e3b c066 e83f f98e c23f
00000060: 0400 0000 fd3f 653f 1d68 1118 f134 383d
00000070: 0400 0000 8f3c 923f 82d5 4c3e d6e4 103f
00000080: 8292 e519 f4ea ef3e 0400 0000 6fba d33e
00000090: 3fab 0740 783a fd3f 9d4b a73f be25 8e3d
000000a0: 3158 a23f a026 923e db99 d03f 0400 0000
000000b0: 0400 0000 2da2 9f3f 0400 0000 b18e aa3f
000000c0: 98b5 013f b093 393f 75a0 9e29 d3b2 a73f
000000d0: 74d8 3319 988e 9c3f fbe1 043f fa74 2e3d
000000e0: 3531 223f d7d2 dd3e bf1a 993f b93c 303e
000000f0: 7403 103c 990b 603f 9691 ba3c e985 7e3c
00000100: b9e1 d23f e470 0f3f 4b04 a83f 0400 0000
00000110: 6a96 4f3f 187a ac3f 0400 0000 e653 8623
00000120: c0bf 573f cf70 153b b87b 8b3f 3ee0 563e
00000130: d012 753f d9ce 893f f32c 313f 0400 0000
00000140: 8bf5 833f 1fda 863f 0400 0000 b1ab b13f
00000150: ddd1 6225 2459 c53f 9882 953f 0400 0000
00000160: 0400 0000 9d71 923b ad7a 1c3e 97c4 b93f
00000170: da35 b33d 13ac c63f 5262 813f ac39 903d
00000180: dee4 ca3f 2b42 483e f73b c43f 0400 0000
00000190: bfbe 433e 7e28 bb3f df05 c33f 8313 1e3f
000001a0: 63bf 043f 0400 0000 0400 0000 8061 b33f
000001b0: 0400 0000 9062 183f 0400 0000 23f5 883f
000001c0: 0400 0000 c593 5b3f 730e 243a e2df e83d
000001d0: c505 a13f 0400 0000 8443 803d 5810 ae3f
000001e0: 1ef6 9237 1c88 bd10 0d7c cb3f 7cb0 b93f
000001f0: 4f6d 9825 7681 c83d 682e 8f3e a31f 6d3e
00000200: f5f7 853f 1eb2 c73d d69c c93d 15d3 a03c
00000210: 0400 0000 0400 0000 28fc 083f 5dc4 703c
00000220: c1d4 bc3f 24c7 a73f 4910 443f 0400 0000
00000230: c731 3b3f b1ce 2d3f 0400 0000 f1fa d13c
00000240: 8177 8e3f 0845 f53e 13d5 0034 0400 0000
00000250: ed53 2d23 709c 9f3d ceb5 ae3f 8477 8a3f
00000260: 957e 0d3f 0400 0000 10cf 853e 0400 0000
00000270: e357 c43f 29d3 513f b8bb 4e3f 42cc ac3c
00000280: 326d c93f e962 da3f 2e66 803c bf0f 4d31
00000290: f350 bf3e 6b99 393d bd27 4d37 5512 f73e
000002a0: 0400 0000 7c97 0a39 2fa4 6b3f 0400 0000
000002b0: 993f c43c e847 1f3f ff2e 1d3f 92d8 133e
000002c0: ad6e 1a3d bdd4 443e 0400 0000 a8be 983f
000002d0: 59f3 8d3f f8c6 0740 0400 0000 ddf0 8d3f
000002e0: 5f29 9738 bd94 813f 0400 0000 9d66 d13f
000002f0: 0400 0000 2ae1 843f 0400 0000 4416 173e
00000300: 2188 c73f a338 f33c 1655 a73f 752e 623c
00000310: 873f 1d3f 0400 0000 8263 0c3e d457 812d
00000320: a4ed 913f 0400 0000 f802 803f 7b6f d13b
00000330: 1658 8a3d 0400 0000 0400 0000 bd4d 923d
00000340: 2bff a43f a9eb d13f 0400 0000 344e 543e
00000350: 8fda df3d 2f03 903f 7ce5 273f 3d14 f23d
00000360: 9c69 4f3f ef1b 723c 4487 563d 0400 0000
00000370: e4d8 263e 3ec0 1f3e f74c cf3e 2c73 a93e
00000380: a8b8 a30e 87a8 d427 9432 b03f 871f 723f
00000390: adb2 b33d 0b41 d23f 60c3 503d 0400 0000
000003a0: 5b67 b83f b8d0 c23f b25d 993f 8789 b83f
000003b0: b4b4 e33f 3f26 c63f d546 7f3f 0ee3 8c3b
000003c0: ca48 eb3b ae21 2c34 4ea6 3a3e bb3b d233
000003d0: b623 873b 58cd a43d b757 7a3d 0400 0000
000003e0: 0400 0000 0c24 4b3f 0400 0000 57fe a73f
000003f0: 6192 e33f 5da0 fd3c 29de 1a3f e5b4 8f3f
0.01943182 0.04399233 6e-45 0.97025967 1.331881 6e-45 0.64137673 1.3585662
6e-45 0.7765716 0.5493923 1.5452243 0.7280208 1.3250127 0.6988261 1.3586335
0.07748759 0.48344317 0.00896354 1.2215284 0.3046673 0.0021806906 1.8156357 1.5199882
6e-45 0.89550763 1.8793375e-24 0.044972364 6e-45 1.1424731 0.20003322 0.56599176
2.3737219e-23 0.46858943 6e-45 0.41353175 2.119827 1.9783468 1.306995 0.069407925
1.2683164 0.28545094 1.6296953 6e-45 6e-45 1.2471367 6e-45 1.3324796
0.50667715 0.7249098 7.0444444e-14 1.3101448 9.2977955e-24 1.2231016 0.5190732 0.042592026
0.63356334 0.4332492 1.1961287 0.17210664 0.008789886 0.87517697 0.022774499 0.015534856
1.6475135 0.5603163 1.312631 6e-45 0.8108889 1.347476 6e-45 1.4563841e-17
0.8427696 0.0022802835 1.0897131 0.20983979 0.9573183 1.076625 0.6920921 6e-45
1.0309309 1.0535315 6e-45 1.3880521 1.967348e-16 1.5417829 1.1680479 6e-45
6e-45 0.00446911 0.15281172 1.451312 0.08750506 1.5521263 1.010813 0.0704225
1.5851095 0.19556491 1.53308 6e-45 0.19115733 1.4621732 1.5236167 0.6174852
0.5185453 6e-45 6e-45 1.401413 6e-45 0.59525394 6e-45 1.069981
6e-45 0.85772353 0.00062582566 0.11370827 1.2579886 6e-45 0.062628776 1.3598738
1.7519164e-05 7.4757065e-29 1.5897232 1.4506984 2.6441867e-16 0.09790318 0.27965093 0.231566
1.0466295 0.0975077 0.09844367 0.019631902 6e-45 6e-45 0.5350976 0.014695254
1.4752427 1.3107648 0.7658735 6e-45 0.7312283 0.6789351 6e-45 0.025632353
1.113022 0.4790423 1.1998445e-07 6e-45 9.396121e-18 0.0779351 1.3649232 1.0817723
0.55271274 6e-45 0.2613454 6e-45 1.5339321 0.8196283 0.80755186 0.021093491
1.5736449 1.7061435 0.015673723 2.9840377e-09 0.37366447 0.045312326 1.22282045e-05 0.48256174
6e-45 0.00013217138 0.920474 6e-45 0.023956107 0.62219095 0.61399835 0.14438084
0.037703205 0.19221778 6e-45 1.1933184 1.1089889 2.121519 6e-45 1.1089131
7.207947e-05 1.0123516 6e-45 1.635944 6e-45 1.0381215 6e-45 0.14754587
1.5588418 0.029690092 1.3072841 0.0138050215 0.6142506 6e-45 0.13709834 1.4704606e-11
1.1400647 6e-45 1.0000906 0.0063914633 0.06755082 6e-45 6e-45 0.07143734
1.2890371 1.6400043 6e-45 0.20732957 0.109303586 1.1250972 0.6558454 0.118202664
0.8102052 0.014777168 0.052375093 6e-45 0.16293675 0.15600678 0.40488407 0.33095682
4.036042e-30 5.902454e-15 1.3765435 0.94579357 0.08774314 1.64261 0.050967574 6e-45
1.4406542 1.5219946 1.1981719 1.441697 1.7789521 1.5480422 0.99717456 0.004299528
0.007180308 1.6031001e-07 0.18227503 9.789752e-08 0.00412413 0.08046979 0.061118808 6e-45
6e-45 0.7935188 6e-45 1.3124493 1.7779046 0.030960256 0.6049524 1.122708

layers.2.running_var f4 [256]
00000000: 01df 823c aa71 193d 0400 0000 c01a 8b3e
00000010: 14f7 aa3e 0400 0000 6e11 723e e2b6 c13e
00000020: 0400 0000 a888 8f3e 2d27 583e e795 723e
00000030: 6600 843e 1c7d 993e 8737 2b3e 2922 0d3f
00000040: 8aa0 533d 589a 703e eb1e c53b 1dfc 9c3e
00000050: bd83 043e 6118 df3a b8bc 8b3e 69bd 803e
00000060: 0400 0000 c986 843e 3d1c 2117 9790 dd3c
00000070: 0400 0000 4164 873e 0fb5 083e 0a51 383e
00000080: a20c de17 bcc4 9b3e 0400 0000 48b4 193e
00000090: abf7 aa3e 2f65 963e 3e8b 7f3e f570 193d
000000a0: 5391 783e cacf 083e 9f57 a43e 0400 0000
000000b0: 0400 0000 36bc 8b3e 0400 0000 cf04 993e
000000c0: da37 853e c68d 853e 2b8d f527 b103 913e
000000d0: c2ec 0b16 333e 843e b5e4 6f3e 7f0d ad3c
000000e0: e351 633e 2201 8f3e 06f9 613e 8aa7 c63d
000000f0: 312e e63b 2bfb 933e cda0 583c a834 293c
00000100: 1a6b 943e c445 773e 339b a43e 0400 0000
00000110: 2573 8e3e c93e 803e 0400 0000 a2da cb20
00000120: 4f55 343e 89e1 ad3a ffe2 a53e 99dd c13d
00000130: 14d7 9f3e a17e 673e 40ff 863e 0400 0000
00000140: cc32 953e 745b 963e 0400 0000 e25e 763e
00000150: 72a6 1924 9794 9f3e 9a44 8e3e 0400 0000
00000160: 0400 0000 0c22 0e3b d57b cf3d 15bc 723e
00000170: b2b9 c03d ddcd 7b3e 4f4a 8f3e ef91 473d
00000180: 4a5e d33e 652c 0e3e 3cd7 9e3e 0400 0000
00000190: 5f80 ee3d 7530 653e a464 9f3e dbdb 813e
000001a0: d657 463e 0400 0000 0400 0000 1b85 883e
000001b0: 0400 0000 c520 6f3e 0400 0000 0c76 b63e
000001c0: 0400 0000 7dfb 8c3e 75a2 ab39 24d7 673d
000001d0: f205 923e 0400 0000 a400 693d 7f93 6f3e
000001e0: 6348 1636 13e8 010f 441a 6d3e 2d72 9c3e
000001f0: 958b 2224 4ce2 943d 93a9 213e 0217 3b3e
00000200: d36c 9f3e ffe1 833d 955b bc3d c325 b43c
00000210: 0400 0000 0400 0000 c423 633e c32d 043c
00000220: 9ba3 8a3e f833 8c3e 01f6 803e 0400 0000
00000230: d6d3 9e3e f4fc 8f3e 0400 0000 4e48 b63c
00000240: 76fc 553e 4b0f 5d3e 61fd a432 0400 0000
00000250: bb02 db20 a131 1e3d fff3 7f3e ef82 ea3e
00000260: 65c1 663e 0400 0000 afc2 183e 0400 0000
00000270: 072b 983e 39b4 7b3e 19b4 693e ee8a 213c
00000280: 590d d33e e72d 623e 90c7 553c 582c 0030
00000290: a2cc 4b3e 03cc c33c 8ecf cb36 6e26 323e
000002a0: 0400 0000 b35f 3738 76bb 9f3e 0400 0000
000002b0: 8458 8c3c f43a 7e3e daba 713e b73e c63d
000002c0: 9e53 0c3d 6cc4 d73d 0400 0000 12ab a33e
000002d0: 08a1 713e 9465 ec3e 0400 0000 45ae 793e
000002e0: 585a 6d37 2353 693e 0400 0000 5658 823e
000002f0: 0400 0000 2a33 aa3e 0400 0000 66a3 d23d
00000300: 7d88 6e3e 717f b23c c2c8 883e 282c 2a3c
00000310: 6017 8a3e 0400 0000 a27d 973d 7fef 362c
00000320: f48a 6c3e 0400 0000 3fbf 343e d4fb c63b
00000330: 6170 6c3d 0400 0000 0400 0000 614c 1c3d
00000340: 0055 193f e525 a43e 0400 0000 256b f73d
00000350: 0268 5e3d 8529 8e3e db8c 883e 9003 e73d
00000360: 2eb6 553e a170 083c 35fc 003d 0400 0000
00000370: 2056 ce3d d471 ac3d fa9f 7c3e be7f 5e3e
00000380: c920 2a0d f871 0525 8204 f93e 2748 863e
00000390: ecdb 453d 9cbd 853e 7545 063d 0400 0000
000003a0: f87e 903e 25a3 843e 52ed 843e 8bd1 913e
000003b0: 5c83 8f3e 6dfa 993e d98b a93e f584 8b3b
000003c0: 8a4a 3d3b 7a15 8531 7814 cb3d a65e c132
000003d0: 9387 a93b bfcf 3e3d 9094 113d 0400 0000
000003e0: 0400 0000 2cb2 703e 0400 0000 13b5 ed3e
000003f0: 7f9b 0e3f 2082 c63c 3b04 7b3e 141d 833e
0.015975477 0.037461914 6e-45 0.27168846 0.3339163 6e-45 0.23639461 0.3783484
6e-45 0.28033948 0.21108694 0.23689996 0.25781554 0.29978263 0.16720401 0.5513025
0.051666774 0.23496377 0.0060156486 0.30661097 0.12940879 0.0017020815 0.27292418 0.25144508
6e-45 0.25884083 5.2057547e-25 0.027046485 6e-45 0.26443675 0.13350318 0.17999664
1.4349603e-24 0.30423534 6e-45 0.15010178 0.3339208 0.29374072 0.2495546 0.03746124
0.24274187 0.13360515 0.320981 6e-45 6e-45 0.2729203 6e-45 0.2988648
0.26019174 0.26084727 6.8154215e-15 0.2832313 1.1303038e-25 0.25828704 0.23427089 0.0211246
0.22199206 0.27930552 0.22067651 0.09699924 0.0070245494 0.28902563 0.013221932 0.010327496
0.28987962 0.24147707 0.32149658 6e-45 0.27822223 0.250479 6e-45 3.4534217e-19
0.17610668 0.0013266067 0.32399747 0.094660945 0.3121878 0.22606899 0.26366615 6e-45
0.29140317 0.29366648 6e-45 0.24059632 3.331757e-17 0.31168053 0.27786714 6e-45
6e-45 0.0021687774 0.10131041 0.2370456 0.094104186 0.2459025 0.2798638 0.048723157
0.41282874 0.13884123 0.31023586 6e-45 0.116455786 0.22381766 0.3113147 0.2536305
0.19369444 6e-45 6e-45 0.2666405 6e-45 0.23352344 6e-45 0.35636938
6e-45 0.2753562 0.00032736702 0.05660166 0.2852016 6e-45 0.056885377 0.23396109
2.2393876e-06 6.404887e-30 0.23154551 0.3055586 3.524638e-17 0.07269725 0.15787344 0.18270496
0.31137714 0.0643959 0.091971554 0.021990662 6e-45 6e-45 0.22181612 0.008067551
0.27077946 0.273834 0.25187686 6e-45 0.31020993 0.28122675 6e-45 0.022251274
0.20897087 0.21587865 1.9207336e-08 6e-45 3.710185e-19 0.03862155 0.24995421 0.4580302
0.22534712 6e-45 0.14918016 6e-45 0.29720327 0.24580468 0.22822608 0.009859784
0.4122112 0.22087823 0.013048068 4.6629145e-10 0.1990228 0.023900991 6.074034e-06 0.17397472
6e-45 4.3719727e-05 0.3119771 6e-45 0.017132051 0.24827176 0.23606434 0.09679931
0.03425943 0.105355114 6e-45 0.31966454 0.23596585 0.46171248 6e-45 0.24382885
1.4147336e-05 0.2278562 6e-45 0.2545802 6e-45 0.3324216 6e-45 0.10285072
0.23294254 0.021789284 0.26715666 0.010386504 0.2697096 6e-45 0.073970094 2.5996703e-12
0.23099881 6e-45 0.1765108 0.0060725007 0.05772436 6e-45 6e-45 0.038158778
0.59895325 0.3206016 6e-45 0.12080983 0.05429841 0.27766052 0.26669964 0.11279976
0.20870277 0.008327634 0.031490523 6e-45 0.10075021 0.084201485 0.24670401 0.21728417
5.242476e-31 1.1574525e-16 0.48636252 0.26226923 0.048305437 0.26121223 0.032781083 6e-45
0.2822187 0.2590572 0.2596231 0.2848018 0.28029907 0.30073872 0.33114508 0.004257793
0.002888354 3.873251e-09 0.099160135 2.2511198e-08 0.0051736324 0.04658484 0.03554207 6e-45
6e-45 0.23505467 6e-45 0.4642721 0.5570602 0.02423197 0.24513333 0.25608122

layers.3.weight f4 [256, 256]
00000000: 45c1 793d 0f37 013e cf3e a73c 0e56 3f3d
00000010: 30dc 9abd 8de2 0b3b 7b49 43bd 8ef6 c0bd
00000020: dbf8 353d 85d8 adbd bc07 71bd 6b66 163d
00000030: f6f1 1f3e b51d a83c 37d9 653c 92f1 b8bd
00000040: ac0f d73b 9e85 273d 2521 623d dbd1 3a3d
00000050: 46e5 b33b 0e5b 38bb 9d53 893d b03f e03d
00000060: 0449 e33c 48bc db3b 38e8 b03d 1179 fa3d
00000070: 2739 f33a 8a57 87bd 673c 86bc 2886 9dbc
00000080: e271 22bd a687 f93c e72d c5bc 0491 27bd
00000090: 8d58 c43c de27 a43c 5ac0 08bc dbec 603c
000000a0: 8e13 97bc c167 c0bd 533b d23c e9aa 82bb
000000b0: e6c5 00bd 9f14 2fbd 6c96 ffbb 09c8 423c
000000c0: 1a45 3dbb 355b d2bd 108b 02bd 2287 c5bc
000000d0: 0828 703d c0ff acbc 71f0 a53d 9c44 09bc
000000e0: b45f d43c 0369 cc3d d0f8 5fbd 20f5 e7bd
000000f0: a5f3 663d eeea 0ebd 4b5a 593d eb43 0bbd
00000100: 1a2b 633b 3d1f aa3d f7f4 9dbb 87ed cc3c
00000110: 3da3 ab3c 281c 9f3d 60b3 4d3c 82a0 1dbc
00000120: 0f33 fdbc e2ad 66bc 0068 94bd 9eda 003b
00000130: 5bfd f53c 9e52 123c 1583 dabd 808a 003c
00000140: 1543 413c 5e12 1a3c 4756 333c 3185 93bd
00000150: 1d1b 273d a3c5 a2bd 7617 273d fbf1 32bd
00000160: ceae 0f3c e37e 0a3d 5dfe 2b3d c9ea 243d
00000170: 53cf 0a3e f296 b73d d2b6 8a3c 5552 593d
00000180: 60e8 aabd 64de f33c 378e d4bd 7558 193d
00000190: 6cbe e7bc da67 0c3d 0e92 bbbc 2208 043c
000001a0: 5d95 063c adbb c63c 8641 a9bc 25d7 d4bb
000001b0: 647e 293d 86a2 87bb d88a 8e3c b0fd b1bd
000001c0: 0df5 c83c 0679 523b baa5 62b9 e089 74bd
000001d0: 0d8b 20bc aede 903c 31f2 873d c0b4 02bd
000001e0: 470e 563c 11ed 953d b88a 93bc ed99 323b
000001f0: 5cab b63c ada0 9e3d 007d 643a 6c00 843d
00000200: b721 1dbd 449b 063e 22e5 be3d ba18 a83d
00000210: 62ab 683b 28af 983c 98da fabc ec0a 2f3d
00000220: 2872 42bd f02b 233d a6d3 c93a e6c3 0fbd
00000230: a2ac d1bd f96e 9d3d feae 08bd e821 9e3d
00000240: 2c35 9c3c 3265 c6bd 8fb9 653c 7295 4d3b
00000250: 759a 463c 9830 bcbd c6a0 433d 1b6d 46bd
00000260: aa58 3dbd 3655 84bb 222d 193e 01d0 153c
00000270: 92b7 8bbc aefc 9bbd 9b8b 8e3d 653e 5abd
00000280: 9e97 a9bc e657 04bc d7dc 84bd e953 313d
00000290: 3d58 6d3c 7897 babc 3693 153d 588d 8fbd
000002a0: b0de a13c 5c4b 9b3c 57d2 d43d e0ab 0b3d
000002b0: 8e6c a33d 1fe5 2ebd a2f0 843d efee 6c3d
000002c0: 5dd7 cd3d 0d9a ab3a f837 ca3c f79a 853d
000002d0: b1a7 92bd 6a98 663d d9c3 87bd 05f9 84bd
000002e0: 557f 633d bb09 c5bd 8142 023d bd3e 1dbc
000002f0: 53c2 84bc eba1 54bc 6fe8 24bd fdfe 283e
00000300: 661f 9abd cda8 2c3d 030f 393d 4436 ac3b
00000310: d714 a03d 034b 033b 546d 6f3c 3971 2e3c
00000320: d91c 583d 02c8 d0bd d903 163d 8831 513d
00000330: 2845 fcbc 7b28 ca39 5bcd 66bc 4551 df3b
00000340: 697e 10bc 67b6 b6bc 2443 a1bc 82cb 57bc
00000350: 2492 1e3c 4af2 273d 0e67 043b 138f 9b3c
00000360: 8340 9cbd 21e4 103c 282b 93bb ee0a ff39
00000370: 4b16 a1bb ad98 53ba 222d bdbd ecdd 813d
00000380: c774 08bb e2e8 c13c dd04 43bd 93f6 b9bb
00000390: 39f2 063d ec47 2fbd bbf2 04bd 0fe5 e73c
000003a0: 81bb a83c b1dd e53c 1293 393d f607 f5bd
000003b0: aa7e 323d 8eff 48bd 78ea 8e3d 9968 be3c
000003c0: defc 023d 7c2e d03c 884f 823d d150 0cbd
000003d0: badf 03bd aeed 9dbc 12f9 703d 75fb 273d
000003e0: ad39 ee3c 721f 87bc 11c3 72bc 5f36 e4bc
000003f0: fae3 a7bc 3d26 87bc 1bb4 573a 3a24 bf3b
0.06097533 0.1261866 0.020415692 0.046712928 -0.07561529 0.0021344752 -0.0476775 -0.094220266
0.04442678 -0.084885634 -0.058845267 0.036718767 0.15619645 0.020521978 0.014028839 -0.09030451
0.0065631475 0.04089891 0.05520739 0.04561029 0.005489978 -0.0028130445 0.06705401 0.109496474
0.027744778 0.0067057945 0.08638042 0.12230123 0.0018556461 -0.066084936 -0.016386224 -0.01922901
-0.03965939 0.03046019 -0.02406974 -0.040909782 0.023968006 0.020038541 -0.008346641 0.013728346
-0.018441942 -0.093947895 0.025663054 -0.0039876592 -0.03143873 -0.042744275 -0.007799914 0.011888512
-0.00288803 -0.102713026 -0.0318709 -0.024112288 0.058631927 -0.021118045 0.08102501 -0.008378174
0.025924541 0.09980967 -0.054680645 -0.11326051 0.0563847 -0.034892015 0.053064626 -0.03400032
0.0034663142 0.083067395 -0.004820462 0.025015606 0.020951862 0.07769042 0.012554973 -0.009620788
-0.030908136 -0.014079543 -0.07246399 0.0019661556 0.030028036 0.00893083 -0.10669533 0.007845521
0.011795779 0.009403793 0.010945863 -0.072031386 0.04079734 -0.079478525 0.04079386 -0.0436878
0.008769704 0.033812415 0.041990627 0.04026297 0.1355565 0.089643374 0.016932879 0.053057034
-0.08345103 0.02976913 -0.10378688 0.037437875 -0.028289042 0.034278728 -0.022896793 0.00805858
0.008214322 0.024259413 -0.020661127 -0.006495374 0.0413803 -0.0041392474 0.01740019 -0.08690965
0.024530912 0.0032115593 -0.00021614778 -0.0597018 -0.009798777 0.017684307 0.06637991 -0.031910658
0.013064927 0.073206075 -0.018010482 0.0027252391 0.022298507 0.0774549 0.0008716136 0.06445393
-0.03836223 0.13145167 0.09321047 0.08207841 0.0035502543 0.018638209 -0.030621812 0.042735025
-0.04747215 0.039836824 0.0015398159 -0.035098933 -0.10238005 0.07687182 -0.03337001 0.07721311
0.019068323 -0.0968727 0.014021291 0.0031369594 0.012121786 -0.09188956 0.047760747 -0.048443895
-0.046227135 -0.0040384782 0.14958623 0.00914383 -0.017055307 -0.07616554 0.069602214 -0.05328216
-0.02070218 -0.008077597 -0.06487434 0.043292914 0.01448637 -0.022777304 0.036517344 -0.07009381
0.019759506 0.018956833 0.10391682 0.03409946 0.079796895 -0.042698976 0.064912096 0.057845052
0.10050843 0.0013092175 0.024684891 0.06523698 -0.07160891 0.056297697 -0.06629152 -0.06492809
0.055541355 -0.096209966 0.031801704 -0.0095974775 -0.016205942 -0.012978057 -0.04026073 0.1650352
-0.0752552 0.04215317 0.045180332 0.0052554924 0.07816475 0.0020033724 0.014613468 0.010647112
0.052761886 -0.101943985 0.036624763 0.051072627 -0.030794695 0.00038558603 -0.0140870465 0.006815108
-0.008819201 -0.022303773 -0.019685335 -0.013171079 0.009678397 0.04100255 0.0020203027 0.018989122
-0.07629492 0.008843453 -0.0044912286 0.00048645533 -0.0049159876 -0.00080717617 -0.09237124 0.06341156
-0.0020821558 0.023670617 -0.04761206 -0.005675146 0.032945845 -0.0427932 -0.03245805 0.028307466
0.020597221 0.028059812 0.045306273 -0.11964409 0.043577828 -0.04907184 0.06978315 0.023243235
0.031979434 0.02541279 0.06362826 -0.03425676 -0.032195784 -0.019278374 0.058831282 0.041011292
0.029080236 -0.016494486 -0.014817015 -0.027857957 -0.02049445 -0.016497726 0.0008228437 0.005833176

layers.3.bias f4 [256]
00000000: 705e 05be b986 b5bd 286f 32bd aa28 8f3c
00000010: 3c10 79bd c9bd cebd f46c 59bd 823a 07bc
00000020: c1e5 9f3d 8c98 e5bd fee9 8ebd 2dbb eabd
00000030: 930b dfbd af90 83bc 3b79 ddbd 8200 6cbe
00000040: 13b0 1cbe ae9a 8fbd 5a67 3cbe c154 47bc
00000050: 182c 3dbd bcf2 283c b6f4 00bc 6278 32be
00000060: be09 f23c 7b74 14bd f4e2 74bb 4579 f8bd
00000070: 0b80 10be d418 59bd 9841 21bd 4244 acbd
00000080: 0897 0abe 4393 8fbd 947f b5bb 82f7 0abe
00000090: d614 b0bd bccd 34bd 1fd6 cd3c 5cc0 8dbe
000000a0: d7cb 70bd 8c1a 34bd 3171 eabc c12d 76bd
000000b0: 0cec f4bd 0bac 74bd 12fd 32be d778 4c3c
000000c0: c989 02be da8c 04bd 5c1b 153d 45d2 f8bd
000000d0: d784 523d 0a37 e1bc 585d 0dbe 7b78 03bb
000000e0: f243 6fbe 3d33 75bd 8a42 d9bd 83db b3bd
000000f0: e104 1cbd 5f0f 7fbd 9ea5 4abc 3872 b0bc
00000100: 8287 99bd 0b74 dfbc 78cb 09bd cceb 12bd
00000110: 9fa4 b4bc 3278 bfbc 2ab4 c6bd 7637 06be
00000120: 9294 62bc 4826 eebd fc8e 49bd 6617 543d
00000130: 2d74 73bd 4637 c2bd cc47 bbbd 942b e8bd
00000140: 6a5c 6dbe 1ffa 8c3d 6bf6 47be 2233 0abd
00000150: 44e5 e6bd cd9a b8bd 8b6c 0dbe 0ae3 c9bd
00000160: 9b46 debd b311 40bd 2b8d a1bd f647 40bd
00000170: e5bd 3bbd 979f 60bd 027f 92bc 6939 51bd
00000180: 89a8 183d 3697 c1bd d877 09be 49d0 14bc
00000190: 33e6 ccbd f002 84bd b076 393c 0d1e e838
000001a0: 09e5 87bd bf8b 243d 1023 a0bd 1477 14be
000001b0: 1524 07be cb5e cfbc 6803 97bc 2c85 53bd
000001c0: 37fa babd bec0 c7bd d14b fcbd c78e 4dbd
000001d0: b527 aabd 076f 14bc ba63 cabb 9268 d5bd
000001e0: df7a c5bc 14b8 b9bd 28e6 a2bc 6bf7 303c
000001f0: c329 b7bd b407 37be 9483 cf3c aaff a9bd
00000200: 233d acbd c7af 07bd 3e4d 0c3b 92af 2bbe
00000210: e8d6 f7bd 9cc5 1ebe b9cd c7bd 4585 77be
00000220: b3a4 02bd c835 e4bd 28d8 b73d d80e 1ebd
00000230: b740 ba3c 2849 47bd 4fa9 3abe 8fbb 38bd
00000240: d6a7 123d a07a f23c 747e b7bd 1a6a 543c
00000250: d889 5ebd 8b28 97bd 10e1 14be dfe1 9ebd
00000260: 376b 83bc e94b 0cbe e757 0bbd 40c5 97bd
00000270: a015 d6bd 82e3 4cbd 2e06 fe3c 727f 87bd
00000280: c1b8 62bd e739 e5bd 48cb d5bd 3147 99bd
00000290: ad8f 0abe 58b9 22bd ee48 22be 7da9 dcbd
000002a0: 2cb8 4d3d 589e c93b 08eb 8f3c 0aa5 16be
000002b0: 4f35 ddbd c848 f4bc af2b 52bd b21c 79bd
000002c0: 8b2a a739 5401 4ebd b431 c03a 9bfd c5bd
000002d0: c505 a7bc bb32 e8bd 2b28 0dbc f95b 77bd
000002e0: 8a05 97bd 1beb b53c 0f8a 38be a457 353d
000002f0: 2285 1fbe a4fe 1bbe 0444 843c 780f 45bd
00000300: 6395 7bbd 3eae e1bc 6b72 6bbd fd48 3c3c
00000310: db62 cfbd 2e3d d6bd 20a2 f6bd 6fd5 fabd
00000320: ceb2 b1bd 993e 4fbd ce78 9cbc 13cc d5bd
00000330: 90b1 20be a4ed 2d3d 4ee9 f6bd 7099 27bd
00000340: c5db 27be 6ee2 60bb 2b23 17be c461 8dbd
00000350: 2b71 f9bd 0fd4 07bd 9016 99bc 1138 f6bd
00000360: d22a 46bd e563 49bd 128d 0cbe 3eee 8dbd
00000370: b413 03be 61e5 39bd 3152 d1bd 0ab7 59bd
00000380: 2173 3fbd d2d2 88bd 13fc b6bd 5c82 73bd
00000390: 9f62 91bd 8ad4 adbd 5134 30bd 3262 9dbd
000003a0: 7184 9ebd 535a 043d 6b3c 2bbd 3987 37bd
000003b0: f29e 7cbc ee79 94bd a854 c1bd b1ca 43bd
000003c0: 49dd acbd 1834 8bbd 0121 44bc 1c51 9fbd
000003d0: addc bcbc 7960 00be 2dd5 0bbe 62dd d3bd
000003e0: 55c1 30be a978 f7bd 6742 30be bb19 80bd
000003f0: ec09 1ebe 714c aebd 7173 c7bd f407 a2bd
-0.13024306 -0.08863587 -0.043563038 0.017475445 -0.060806498 -0.100947924 -0.05308242 -0.008253695
0.07807494 -0.11210737 -0.06978224 -0.11461482 -0.108908795 -0.016060201 -0.108141385 -0.23047069
-0.15301542 -0.07011925 -0.183988 -0.012166203 -0.04618463 0.010311779 -0.007870844 -0.17428735
0.029545661 -0.036243897 -0.003736672 -0.12132505 -0.14111345 -0.053002194 -0.039369196 -0.08411457
-0.13534176 -0.0701051 -0.00553889 -0.13570979 -0.08597724 -0.044141516 0.025126515 -0.2768582
-0.058788147 -0.04397063 -0.028618427 -0.060102228 -0.11959085 -0.059734385 -0.17479351 0.012479982
-0.12747873 -0.03236089 0.036403045 -0.12149481 0.051396217 -0.027492065 -0.13805139 -0.0020060826
-0.23365763 -0.059863318 -0.106083944 -0.08782103 -0.03809059 -0.06227052 -0.012368588 -0.021538839
-0.07496549 -0.027277013 -0.03364131 -0.035869405 -0.022051154 -0.023372743 -0.09702332 -0.13107094
-0.013829367 -0.11628395 -0.049208626 0.051780127 -0.059436966 -0.09483199 -0.091445535 -0.11336437
-0.23179784 0.06883644 -0.19527595 -0.03374017 -0.11274198 -0.09013901 -0.13810937 -0.098577574
-0.10853311 -0.04689188 -0.07888254 -0.046943627 -0.045835394 -0.054839697 -0.017882828 -0.05108014
0.037270103 -0.09452669 -0.13424623 -0.009082862 -0.100048445 -0.06445873 0.011319801 0.000110682195
-0.06635482 0.040172335 -0.07819188 -0.1449855 -0.13197358 -0.025313755 -0.018434241 -0.051640674
-0.09129756 -0.097535595 -0.12319148 -0.05018499 -0.08308355 -0.009059674 -0.006176439 -0.10420336
-0.024106441 -0.09068313 -0.019885138 0.010801177 -0.08943512 -0.17874032 0.025331296 -0.08300717
-0.084100984 -0.03312662 0.0021408345 -0.16766194 -0.12101537 -0.1550507 -0.09756035 -0.24171932
-0.03189535 -0.111430705 0.089767754 -0.038588375 0.022735937 -0.04865375 -0.18228649 -0.045100745
0.035804592 0.029599488 -0.08959666 0.01296475 -0.054330677 -0.0738078 -0.1453898 -0.07757925
-0.016042335 -0.13700832 -0.034019377 -0.07410669 -0.104533434 -0.050021656 0.031008806 -0.06616105
-0.055351976 -0.111926846 -0.104391634 -0.07484282 -0.1353137 -0.03972754 -0.15848133 -0.10774515
0.050224468 0.0061529092 0.017568126 -0.14711395 -0.108011834 -0.029819861 -0.05131119 -0.06081838
0.0003188442 -0.050294235 0.001466325 -0.09667512 -0.020388493 -0.11337801 -0.008615534 -0.060390446
-0.07374103 0.022206834 -0.18021415 0.044273034 -0.1557813 -0.15233856 0.016145714 -0.048110455
-0.061421763 -0.027548905 -0.057482164 0.011492011 -0.10126277 -0.10460888 -0.12042642 -0.122477405
-0.086766824 -0.050596807 -0.019100573 -0.10439315 -0.15692735 0.04246296 -0.12056218 -0.040917814
-0.16392429 -0.003431465 -0.1475951 -0.06903413 -0.12179788 -0.03316122 -0.018687516 -0.120224126
-0.04838068 -0.049167532 -0.13725689 -0.06930207 -0.12800485 -0.04538477 -0.10220755 -0.053153075
-0.046740655 -0.06680836 -0.08934798 -0.059450492 -0.070988886 -0.08487804 -0.043018643 -0.07684745
-0.07740105 0.032312702 -0.041805666 -0.044806693 -0.015418755 -0.07249819 -0.09439975 -0.047800723
-0.08440644 -0.067970455 -0.011970759 -0.07779142 -0.023054445 -0.12536801 -0.13655539 -0.1034496
-0.1726125 -0.12083561 -0.1721283 -0.06254908 -0.15433472 -0.08510674 -0.097388156 -0.07911673
